LeNet/best_model.pth (torch, 250594 bytes, 10 tensors)

layer.0.weight f4 [6, 1, 5, 5]
000000 05 5c 02 3e e5 c7 30 bf 64 12 3e bf db 3d 8f 3e
       0.12730415 -0.69055015 -0.7424681 0.2797688
000010 46 d3 7a 3e 54 7a 32 3e 3d dc 5d bf 4b 4e 81 bf
       0.24494657 0.17429477 -0.8666418 -1.0102018
000020 5b 43 00 3e 10 13 62 3e 76 d3 9e 3e 51 7f 5a bf
       0.12525694 0.22077584 0.31020707 -0.8535052
000030 85 f0 1e bf 12 4a 38 3d 83 53 b5 3e ba 7e 9c 3e
       -0.62085754 0.044992514 0.35415277 0.30565435
000040 48 bf 13 bf b8 ca 3f bf 2b 2d c1 3d 6a 12 1d 3f
       -0.5771375 -0.749187 0.09432443 0.6135622
000050 d6 a0 2c 3f 39 99 f1 be a4 53 b7 be 78 ae 36 3e
       0.67432916 -0.47187212 -0.35806 0.17839992
000060 ab 9f 1d 3f 06 03 ca be 43 9b 3e bf 7c f5 86 bf
       0.6157176 -0.39455432 -0.7445566 -1.0543666
000070 bc 67 38 bf b7 3d c8 be 29 17 86 3f 3d ac 83 40
       -0.72033286 -0.39109585 1.0475818 4.114775
000080 a5 8f 57 40 68 e3 de 3e 2d 45 20 bf e3 00 6f 3f
       3.3681424 0.43532872 -0.62605554 0.9336073
000090 d6 79 b3 40 05 55 c8 40 6c bf 83 3f bf 22 3e be
       5.6086226 6.2603784 1.0292792 -0.18567942
0000a0 be 72 23 bf df e1 e4 3e ae 1c 37 3f 23 47 d6 3e
       -0.6384696 0.44703576 0.71528137 0.41851148
0000b0 c2 72 25 be c5 a4 6b bf 79 e8 06 bf aa 0d 11 3d
       -0.16157058 -0.92048293 -0.52698475 0.03541342
0000c0 d5 dc 9a be 8d 73 0e bf 6e 7f 11 bf e1 28 b6 3e
       -0.30246606 -0.55645066 -0.5683507 0.35578063
0000d0 8c 5a 64 3f ac 8c cd 3e 1a af 30 bf 11 24 8d bf
       0.89200664 0.40146387 -0.69017184 -1.1026632
0000e0 0f c3 0f 3f d9 94 8f 3f 56 5a 17 3f df 0a 17 bf
       0.5615701 1.12173 0.59122217 -0.5900096
0000f0 ad 84 b0 bf f4 09 f9 3e 1e b6 9c 3f 00 c6 93 3f
       -1.379049 0.48640406 1.2243078 1.15448
000100 70 c7 22 bd 01 91 c4 bf d6 84 7f 3d 31 d8 6f 3f
       -0.03974098 -1.5356752 0.06238254 0.93689257
000110 ff 49 6d 3f 12 6f 1e be 8e d4 c6 bf 82 51 b4 3d
       0.92691034 -0.15472057 -1.5533617 0.08804609
000120 8c dc 53 3f 14 82 62 3f 8d 39 7c be 1a ec ba be
       0.827584 0.88479733 -0.24631329 -0.36508256
000130 92 f1 90 be f1 93 a8 3d b2 6a 2f be 5d 2b b6 be
       -0.28309304 0.082313426 -0.17130545 -0.3557996
000140 8c e5 6b 3f 56 2e 5e 40 e4 83 87 40 c2 82 cd 3f
       0.92147136 3.4715781 4.23485 1.6055529
000150 01 29 95 bd e1 cb 99 3f d5 2a c8 40 98 c6 de 40
       -0.072832115 1.2015344 6.2552285 6.9617424
000160 ea df 5d 40 43 61 c0 3e b4 7c 6d be 1e 1b d9 3f
       3.4667916 0.37574205 -0.23192102 1.69614
000170 d1 46 7f 40 e7 00 b3 3f 3d 67 4a be ef c8 49 bf
       3.9886973 1.398465 -0.19765945 -0.78822225
000180 fc 19 4a bf 44 36 68 3e f1 9b 2c be 30 c7 b6 be
       -0.789459 0.2267695 -0.16856362 -0.35698843
000190 77 0b 1f bf 44 87 ef 3e 9d 6a c1 ba 52 2e 8b bf
       -0.6212687 0.46782887 -0.0014756505 -1.0873511
0001a0 ec 8f 95 bf ba 48 b0 bd 47 fa a7 3f 9e 6a b4 3e
       -1.1684546 -0.086076215 1.3123254 0.35237592
0001b0 db 78 3b bf 08 55 39 bf 7d 2e 59 3c 0b 0a 04 40
       -0.73231286 -0.7239537 0.013255713 2.063113
0001c0 4f 0f bc 3f fb 7c 24 be ac f0 a8 be 7a fc 9c be
       1.4692172 -0.16063301 -0.32996118 -0.30661374
0001d0 71 b4 de 3f 6c f5 6d 3f ca 84 8d be 1b e1 2e bf
       1.7398816 0.9295261 -0.27640373 -0.68312234
0001e0 ef 7f 2e bf bd b9 94 3f cc c4 5c 3f 73 81 00 bf
       -0.6816396 1.1619183 0.8623779 -0.50197524
0001f0 bf 35 77 bf 25 f1 85 bf e2 7a c2 bf ab 0c 51 bf
       -0.96566385 -1.0464216 -1.5193751 -0.81659955
000200 59 87 37 bf a8 ae 0e bf bd 09 a4 3f 42 45 82 40
       -0.716909 -0.55735254 1.2815472 4.0709543
000210 26 47 e7 3f 91 7b 77 be 1d d2 ea be 69 59 d6 3f
       1.8068588 -0.2416823 -0.4586343 1.6746036
000220 34 72 c1 40 b1 07 45 40 a9 8e 1d 3f d0 4d 89 3e
       6.045191 3.0785944 0.6154581 0.2681718
000230 52 d4 0e bf 63 a6 f9 3e 9d 27 93 3e 20 4e 92 3d
       -0.55792725 0.48759755 0.2874116 0.071438074
000240 d4 eb 0a 3b fd bd 92 bf e3 2c 63 bd 87 b7 b3 be
       0.0021197693 -1.146423 -0.05546273 -0.35100958
000250 1f 67 ea be 3b 9b 12 bf
       -0.457818 -0.5726811

layer.0.bias f4 [6]
000000 c3 b8 31 3e 23 81 28 bf 43 f4 9e bf 94 8a 4f bf
       0.17355637 -0.65822047 -1.2418293 -0.8107083
000010 92 d4 5b bf 1e 05 87 bf
       -0.8587123 -1.0548437

layer.3.weight f4 [16, 6, 5, 5]
000000 a8 f2 9f 3d 38 e2 61 3e a2 d1 f2 3d d0 a6 46 3e
       0.07809955 0.22058952 0.118563905 0.19399571
000010 af 69 ae 3e bd af fc bd 91 81 a2 3e d8 af 9b 3e
       0.34065005 -0.12338207 0.31739476 0.30407596
000020 74 e9 82 3e c6 f2 bf 3e 48 af 5f bc 9f 60 e0 3e
       0.25568736 0.3748991 -0.01365263 0.43823716
000030 9f 70 bc 3e 2f 39 e9 3d 38 ce ae 3e 10 cc 2d 3e
       0.36804673 0.1138786 0.34141707 0.16972375
000040 52 9a 3f 3f 3d 93 de 3e 87 fe a7 3d bb cb b5 3e
       0.7484485 0.4347171 0.08202844 0.35506997
000050 9b ad 00 3e fb 61 14 3f b1 b9 58 3e 1a 24 a7 be
       0.12566225 0.57962006 0.21164586 -0.3264473
000060 7d 41 a1 3d 5e 0a 76 3e 44 a7 cf 3d 5a ad 26 be
       0.07873819 0.24027392 0.10139325 -0.16277066
000070 dc 97 45 be 66 66 46 be a2 21 b3 3e 2e 2e 82 be
       -0.19296211 -0.19375 0.34986597 -0.25425857
000080 92 41 cb be 85 9c c6 bd bb f2 37 be ab b3 e0 3d
       -0.39698464 -0.096978225 -0.17963688 0.10971769
000090 d4 a1 4a bf c8 ff c1 be 8d c6 98 3d 1d 32 38 3d
       -0.7915318 -0.37890458 0.074597456 0.044969667
0000a0 19 14 e8 3c 20 63 30 bf d6 68 6a be b5 c2 77 3e
       0.028329896 -0.6890125 -0.22891554 0.24195369
0000b0 a8 39 d1 bb 87 f5 ad 3d 87 f6 cd be 52 f7 c5 3e
       -0.006385047 0.08494096 -0.40227148 0.38665253
0000c0 57 23 2f 3f e0 a4 ba 3e 4f b1 5e 3c 1b ee 85 3e
       0.684133 0.36453915 0.013592078 0.26158223
0000d0 2c 9c fc bc 36 93 f7 bd 66 69 72 bd fa 45 42 bd
       -0.030836187 -0.12088625 -0.059182547 -0.047430016
0000e0 3a ea 8e be 5c 15 2e 3d 14 8d 42 bc ce 3c 0c be
       -0.27913076 0.04250084 -0.011874456 -0.1369507
0000f0 71 16 56 be 65 f9 35 bf 9d cb 38 3e c4 da 26 bc
       -0.20906998 -0.7108367 0.18046422 -0.010183994
000100 47 90 1b be ff cf a4 be c3 24 31 bf a0 e0 70 3e
       -0.15191756 -0.32189938 -0.6919672 0.23523188
000110 ee 09 4c be c7 c7 ba bd 69 b6 67 bd 6f e8 9e be
       -0.19925663 -0.09120136 -0.056570444 -0.31036708
000120 ab 4f 2e 3f 09 82 d6 3d 87 e2 98 3b 76 3a 20 3e
       0.68090314 0.10474021 0.004665676 0.15647301
000130 81 ea 2c be ec 44 de be b7 dd be be 4c 0d aa be
       -0.16886331 -0.43411958 -0.3727853 -0.3321327
000140 8c 09 be 3d 9a 5b 13 bf b1 bb f0 be 5b 6f 05 be
       0.09279165 -0.5756165 -0.47018197 -0.1303076
000150 f3 54 7b be ad 58 82 be 88 96 31 bf 7d 4d b5 be
       -0.24544124 -0.2545828 -0.6937032 -0.3541068
000160 08 9b 1c bd 31 da 18 be e1 fc 38 be 64 73 15 bf
       -0.038233787 -0.14926983 -0.18065216 -0.583792
000170 a0 87 08 be 07 ad b1 3d fd f8 a4 3d cf 71 c5 bd
       -0.13332987 0.086755805 0.08055303 -0.09640848
000180 f9 5b 4f be 29 16 d1 3e 0e 58 bd 3e 2f 4c 5e 3e
       -0.20249929 0.4083722 0.36981243 0.21708749
000190 20 1a de 3d 56 96 fb bc 72 e5 26 3e e8 72 6c bc
       0.10844827 -0.030711334 0.16298464 -0.014431693
0001a0 e4 ba f9 be ce 0e d3 3e 56 01 d8 be f8 69 fa bc
       -0.487754 0.41222233 -0.4218852 -0.030568108
0001b0 e2 9d b0 3d e2 4c c1 be 59 21 6a 3e e0 4d 3c bf
       0.08623864 -0.3775397 0.22864284 -0.7355633
0001c0 2b 38 78 be 9a 7c 60 3c 47 e9 e2 be 36 df 03 3e
       -0.24240176 0.013701582 -0.443186 0.12878117
0001d0 2e 35 2b bf 71 d7 09 bd f5 a4 94 3e 0e 6a a2 be
       -0.6687802 -0.033652727 0.29032102 -0.31721538
0001e0 dd 91 a5 3e fd ab 6e be 33 9b bf 3e 24 9a 5a 3f
       0.32337847 -0.23307796 0.37423095 0.8539145
0001f0 76 47 84 bc 68 0f 98 3e 83 79 70 3e 3e 00 e7 3d
       -0.016147356 0.29699254 0.23483853 0.11279343
000200 36 de 25 3d 63 87 a6 bd 4f 9d ce 3e 51 3a 48 bd
       0.04049512 -0.08131292 0.40354392 -0.04888374
000210 d7 ba bd be 44 c7 ff 3c 54 2f 3a be 2f 68 bc 3e
       -0.3705661 0.031222947 -0.18182117 0.36798236
000220 83 97 ee be 80 48 0d bf 44 c7 4d 3e f6 af 85 bd
       -0.4659997 -0.5518875 0.20095545 -0.065277025
000230 36 99 19 3d 1d fb 23 bf 24 2b e5 be a5 1b 53 3e
       0.03749963 -0.64055043 -0.44759476 0.20616014
000240 23 86 4e bd 28 2f 31 3e 8f 21 9d be 6a 4a 33 3e
       -0.05042089 0.17303145 -0.30689666 0.17508855
000250 a0 cb 38 3f df 29 b1 3e d1 5c 44 bd 23 b8 aa be
       0.7218571 0.34602258 -0.04794008 -0.3334361
000260 02 fb 1a 3f a9 f8 ce 3e 0a 55 f0 be d4 f7 94 bd
       0.6053926 0.40424088 -0.4693988 -0.07273832
000270 f5 bc ba be b6 40 ea 3e f9 a4 d0 3e c9 03 24 bf
       -0.36472288 0.45752496 0.40750864 -0.64068276
000280 0b bd cb 3d c8 bc 14 bc 45 da 1c 3f 3c 79 0b 3f
       0.099481665 -0.009078212 0.6127055 0.54481864
000290 b5 f3 88 bf d3 6b 77 bc 45 5f b8 3e b1 19 02 3f
       -1.0699373 -0.015101391 0.36010185 0.5082045
0002a0 59 17 b1 3e 27 bb 9c bf ed 15 28 be 32 34 10 3f
       0.34588125 -1.2244614 -0.16414614 0.56329644
0002b0 c8 f4 1b 3f 2a 10 0b 3f 1c 6e a8 bf 7a d0 84 3e
       0.6092038 0.5432154 -1.3158603 0.25940305
0002c0 f9 a6 0f 3e 34 00 31 bf ca 2e bf be bd 54 8d 3e
       0.14028539 -0.69140935 -0.37340385 0.27603713
0002d0 1e 10 59 3d 0b da 35 3e 68 a7 15 be ff da c5 3d
       0.052993886 0.17758958 -0.14614642 0.09660911
0002e0 bd 45 db 3e c5 b2 f3 3d 51 60 93 bc 9b e6 a3 be
       0.42826644 0.11899332 -0.017990263 -0.32011876
0002f0 4c 17 23 bc 0d 29 17 3f bb d0 1e 3e 22 06 77 bb
       -0.009954285 0.59047014 0.15509312 -0.0037692864
000300 a9 9f 7e be f8 95 42 3d aa c5 09 3f 1e a6 02 3e
       -0.24865593 0.047506303 0.53817236 0.12758681
000310 4b 5f 97 be 14 32 23 bf 7c d6 1c be aa cc f4 3e
       -0.2956489 -0.6374829 -0.15316194 0.47812396
000320 b9 f2 04 3e ab 43 65 3e 54 9b 3d bf 35 fd 31 bd
       0.12983216 0.22389095 -0.74065137 -0.043454368
000330 11 47 09 3e 3d 59 4c bd 99 17 d2 3d fc 93 be be
       0.13406016 -0.04988979 0.10258407 -0.37222278
000340 84 a0 75 3e 29 de 85 3e 72 6f 55 be f1 85 3a be
       0.23987013 0.26146057 -0.20843294 -0.18215157
000350 a4 9b 8b be c7 27 01 3f 9f 39 e0 3e 6d 7a a9 be
       -0.27267182 0.5045132 0.4379396 -0.33101216
000360 6b 1b 17 bf 4a 2c 40 be 17 bd 11 3f f5 c1 1a 3f
       -0.5902621 -0.18766895 0.56929153 0.60452205
000370 35 4a e1 be f1 80 84 bf 63 24 1b bf 2d 52 3b 3f
       -0.44001928 -1.035185 -0.60602397 0.73172265
000380 5c 73 70 3f 3c b7 72 3e ed a4 87 bd 0e ec 13 bf
       0.93926024 0.23702711 -0.06623254 -0.57782066
000390 81 d4 90 be ee 28 37 3e 56 02 3c 3d 01 f4 ea bc
       -0.28287128 0.17886707 0.045900665 -0.028680803
0003a0 40 0b ae be 7f 9c df 3d 06 00 ab 3e 01 bf 3c 3d
       -0.33992958 0.10918521 0.33398455 0.046080593
0003b0 41 fe 78 be 7b 20 bd be 29 9c 50 3c 2d 22 dc 3e
       -0.2431574 -0.36938843 0.012732544 0.42994824
0003c0 d9 05 1e 3e 64 7b ca bd c7 26 94 be a3 4e 66 3e
       0.15431918 -0.09886816 -0.28935835 0.22490935
0003d0 18 c5 e9 3e ad df 83 3d 1e 2f 9d be f6 bd 99 be
       0.45658183 0.06439147 -0.3070001 -0.3002774
0003e0 15 f7 17 3e 16 56 91 3e 02 48 3f 3d a8 ca a3 3e
       0.14840348 0.2838599 0.04669953 0.31990552
0003f0 3a 1b 67 be 96 bf 8a be f5 69 3f 3e 41 20 75 be
       -0.2256898 -0.27099293 0.18692763 -0.23938085

layer.3.bias f4 [16]
000000 40 36 fe 3d 19 ed 7c 3d bd a2 91 3b 22 85 04 3e
       0.12412691 0.06174955 0.0044444487 0.12941411
000010 45 7d 69 3e 4c 81 21 3e 93 8b 73 bd 5d a9 04 3e
       0.22801693 0.15771979 -0.05945928 0.12955232
000020 fe 9f 20 3e fe cd da 3d ff a7 39 3e a0 b6 8e 3e
       0.15686032 0.10683821 0.18130492 0.27873707
000030 4d c7 00 3e 59 70 25 3e e4 1f 10 3e 8f 1d 7d be
       0.12576027 0.16156138 0.14074665 -0.24718307

layer.7.weight f4 [120, 400]
000000 ee 03 84 bd dc 85 c6 3c 3b b5 ef bd 62 bf 38 bc
       -0.06446062 0.024233751 -0.11704489 -0.011276098
000010 95 e4 a6 3d 42 af 27 bc 78 ba 8d bc 42 5d 93 be
       0.08149067 -0.010234656 -0.01730083 -0.28782088
000020 4f d7 59 3d 1c ed 19 bf 6b 90 e4 3d 89 ce 9d bd
       0.05318385 -0.60127425 0.11160358 -0.07705409
000030 fb 72 8b be f3 09 77 be a2 55 d2 bd 61 a0 df 3e
       -0.2723616 -0.24124889 -0.102702394 0.43677047
000040 ad 4f 36 3d db 7c d4 bd 4e 03 48 bc 19 45 77 be
       0.04450958 -0.10375377 -0.012207819 -0.24147452
000050 4d 45 9a 3d c3 8c 46 bf f7 0b 9f 3e 9b 84 2a 3f
       0.07532749 -0.77558535 0.31063816 0.6660859
000060 97 0c bd be f8 da 02 3e e8 12 86 3e f5 11 73 bd
       -0.36923668 0.12778842 0.261863 -0.059343297
000070 12 9c 63 3e 35 3a aa 3e 59 83 cc 3a 72 14 a9 3d
       0.22227505 0.33247533 0.001560311 0.08255853
000080 8e c1 d5 bd 1d 04 a8 bc b2 af eb bd 24 7b 83 bd
       -0.10437308 -0.020509774 -0.115081206 -0.064199716
000090 9c c9 87 bd 96 4f 11 3e fa 1b 4f 3e 6b 4e be be
       -0.06630251 0.14190516 0.20225516 -0.37169203
0000a0 9a 47 4d bd 3e c7 51 be 9a 59 96 bd 75 7f d4 3e
       -0.050117113 -0.20486161 -0.07341309 0.41503492
0000b0 91 a3 86 be a7 33 42 bb cf 51 c6 3c ba 93 58 be
       -0.26296666 -0.0029632838 0.024208931 -0.21150103
0000c0 e9 fe 2c 3f 8c 1d d4 3c e6 a9 ca bd 49 2e d7 3d
       0.6757646 0.025892995 -0.09895687 0.10506875
0000d0 03 b0 bb bd 57 0f 45 3e 66 fb 98 be ed 23 12 ba
       -0.09164431 0.19244133 -0.29879302 -0.00055748114
0000e0 a9 a3 12 be c6 93 f7 be 4c 94 69 3d 27 2c b0 bd
       -0.14320244 -0.4835493 0.057026193 -0.086021714
0000f0 90 86 bc 3d 7d 96 83 3d 97 1e 29 3d c4 20 a5 be
       0.09205353 0.06425188 0.04128894 -0.3225156
000100 b1 ba 80 3e 82 4e f7 3d f2 df eb 3e 4b 33 44 3e
       0.25142434 0.12075521 0.46069294 0.19160192
000110 bc 84 f5 3e 9f 4f 47 3e ce dd 07 bf e1 2b 75 3e
       0.4795283 0.19463967 -0.5307282 0.2394252
000120 78 61 bb 3e ac 0e 62 3e 72 fb d6 be 63 fc 12 bd
       0.365978 0.2207591 -0.41988713 -0.035885226
000130 24 94 be 3d d4 fc db bd c9 18 e2 3e 82 93 95 bd
       0.09305599 -0.107415825 0.44159535 -0.073035255
000140 e8 8a ce bc 23 3e 01 bd 3e c0 7a be 5d 87 2a be
       -0.02521272 -0.0315534 -0.24487397 -0.166532
000150 33 ee 36 be 37 b4 c5 b9 33 68 a7 3d 1c 97 15 3e
       -0.17864303 -0.0003770904 0.08174171 0.14608425
000160 83 b9 c3 bb 16 b3 5b 3e 12 09 52 be b3 22 b5 3d
       -0.0059730425 0.21455035 -0.20511273 0.08844509
000170 fa 65 57 3e 3f f3 f0 3b 8d 4e a0 bd 87 ec 88 be
       0.21034995 0.007353216 -0.07827482 -0.26742956
000180 6d cc 65 3e ef c0 8c 3e fc ec 82 3d 2f ff 4c bd
       0.22441263 0.27490947 0.063928574 -0.05004805
000190 1a 44 38 3d 6f 71 23 bd 68 e1 5c be 52 e9 da 3d
       0.04498682 -0.0399031 -0.2157036 0.106890336
0001a0 db 33 3e be 85 e1 87 3d fc 48 99 bc 58 c6 bd 3d
       -0.18574469 0.06634811 -0.01871156 0.09266347
0001b0 11 f7 c7 be 06 34 5d bd b4 76 89 3d 61 43 9a 3e
       -0.39055684 -0.05400469 0.06712094 0.3012953
0001c0 ed 1a ad 3e 69 78 13 be f4 69 40 3e 9f 1d 4e be
       0.33809605 -0.14401402 0.18790418 -0.20128487
0001d0 c3 5f 7b 3e 16 72 dc 3e a1 34 f9 3d af aa b9 bc
       0.24548249 0.4305579 0.12168241 -0.022664396
0001e0 d2 05 bc be 4d 52 7d bc da f1 dc 3e 4f 2f 57 3e
       -0.3672319 -0.015461517 0.43153268 0.2101414
0001f0 6d c4 e6 be 94 36 a4 3b 7b ac 4c 3e a3 ff 9e 3d
       -0.45071736 0.005011389 0.19987671 0.077636026
000200 22 ed ec bd 58 6d c9 3d 40 1a 57 bd 66 08 51 3d
       -0.11568667 0.09835309 -0.05251527 0.0510334
000210 9a a4 c5 3d 24 fe 97 3b 12 d8 04 3c 7d 7c 9c bc
       0.09650536 0.00463845 0.008108156 -0.01910233
000220 c1 8a 74 3d 3e 91 82 bc 89 d6 2d bc 30 85 ee 3d
       0.05970264 -0.015938397 -0.010610231 0.11646497
000230 a6 6f 1a 3d 3e 30 8e 3d 84 f2 fa 3d d9 08 2c bb
       0.037704132 0.06942795 0.122532874 -0.002625039
000240 25 6b 92 3e 7e a3 42 be 9f c1 c2 bc bf f6 13 3e
       0.2859737 -0.1900768 -0.023773966 0.14449595
000250 e0 3c 9e 3d 4b bc c2 bc 58 8b 9a bd ae 41 16 3e
       0.07726455 -0.023771426 -0.07546109 0.14673492
000260 2d ba 2e be b9 7e f7 3e 75 e5 6c be 6e 61 41 3e
       -0.17063208 0.4833887 -0.23134406 0.18884823
000270 d2 ac 6f 3d 8f 0e 89 bd 5b 4c f5 3c 28 7c 2e bd
       0.058514424 -0.0669223 0.029943636 -0.042598873
000280 0c 35 58 3e 4f f7 57 3e 55 13 e3 3d 95 16 84 be
       0.21113986 0.21090434 0.11087672 -0.2579848
000290 a4 9a 32 bc ee ee 0a bd b7 55 96 3e 10 71 f7 3e
       -0.010901127 -0.033919267 0.2936227 0.48328447
0002a0 bb 2c 3f 3e ad 99 99 bd 89 f1 a9 be 0a ef 70 3e
       0.18669407 -0.075000145 -0.3319209 0.23528686
0002b0 8f 1b 94 3d 77 a1 06 3f ca e7 70 be 5c 6f cb bd
       0.07231819 0.52590126 -0.2352592 -0.099333495
0002c0 70 66 b7 3d f2 6f f6 3d 93 b5 bb bd f9 89 fc 3c
       0.08955085 0.120330706 -0.09165492 0.03082751
0002d0 60 9b af bd 65 96 9c bd e3 60 8d 3c a9 5b d0 3d
       -0.08574557 -0.07645873 0.017258113 0.10173733
0002e0 d0 ec 83 bd 9a 95 2d be 09 49 13 bd 0e 6e 4c be
       -0.06441653 -0.169516 -0.035958324 -0.19963858
0002f0 9a 8e 64 be 87 92 14 3e 4b 49 60 be d6 54 b4 3c
       -0.22320023 0.14509021 -0.21902959 0.02201311
000300 34 c4 3f 3e ac dc 8e bc 62 3d 71 3e da 0d 6f be
       0.1872719 -0.017439209 0.23558572 -0.23345128
000310 dc f0 a6 3e 9d a7 24 3e bf 41 95 be 2e da 76 be
       0.32605636 0.16079564 -0.29151723 -0.24106666
000320 30 a4 71 3c 57 3a ae 3d 0f b7 0f 3d 3f f5 2d 3e
       0.014748618 0.08507221 0.035086688 0.16988085
000330 e6 d7 5d be f2 6d 85 3d 88 70 fd bd 13 09 a7 be
       -0.2166439 0.06515111 -0.12374979 -0.3262411
000340 36 db 3e 3c bf a0 dc bd ba 70 5d 3e 05 1b 31 bd
       0.011648944 -0.107728474 0.21625033 -0.04323866
000350 c3 f5 27 be eb a9 09 bd f3 aa c0 be 2f ad 1f 3e
       -0.16402344 -0.033609312 -0.37630424 0.15593408
000360 bc 0e 07 3d 47 9f 78 bc e9 7f 3a 3e 38 ed 13 3e
       0.032973036 -0.015174693 0.18212856 0.1444596
000370 51 eb a2 3d 29 79 35 bf 42 19 07 3c f5 bb 05 3f
       0.07955039 -0.70888 0.008245768 0.52239925
000380 2f cd f1 be 1f 5f 5c 3d de b4 0a 3e f3 e0 13 bd
       -0.47226855 0.053801652 0.13545558 -0.0361032
000390 a3 db c2 bd d2 bc 98 3d c0 f2 2f 3d bd b9 f8 3d
       -0.09514549 0.074578896 0.042956114 0.12144802
0003a0 8c f8 a3 3d 13 f2 31 3d 0f 13 f9 bc 35 be 95 bd
       0.08006391 0.04344375 -0.030404596 -0.0731167
0003b0 4b fc 69 3c 1a ce 8e 3d 63 8b 0d be 34 6e 8d bd
       0.014281343 0.069729045 -0.13822703 -0.06905785
0003c0 bc 8d a0 bd bd 62 76 3d d0 7e 8a bd fc 82 b7 bd
       -0.07839534 0.060152758 -0.06762469 -0.0896053
0003d0 6f c7 e1 3d bb cc d2 be 54 d9 05 bd d0 4a 83 3d
       0.11024367 -0.41171822 -0.032677963 0.06410754
0003e0 1f 84 16 be 27 28 94 be 63 75 c9 bd f2 a1 ed 3d
       -0.14698838 -0.28936884 -0.09836843 0.11603154
0003f0 72 26 51 3d 93 a5 2a 3e 14 17 f8 bd 80 c6 3d 3c
       0.051062055 0.16664724 -0.12113777 0.011582971

layer.7.bias f4 [120]
000000 51 6e f0 3d e5 e8 16 bd 2a c6 ce 3d 9c 89 c2 bd
       0.11739791 -0.0368432 0.100963905 -0.09498903
000010 85 ab 09 3e 8e 6a 30 3d dd 82 1c bd 05 1e e4 3d
       0.13444336 0.04307037 -0.03821074 0.11138538
000020 28 6e f8 3d 85 b6 67 3e e9 c5 10 3e 88 cd 27 3d
       0.12130386 0.2262822 0.14137997 0.040967494
000030 0c 9b 90 3d bf a1 01 be 3f a2 47 bd 32 80 20 3d
       0.07060823 -0.12659357 -0.048738714 0.039184757
000040 a5 4e 1b bd 7d 12 7f 3d 18 aa a8 bc a6 74 3a 3e
       -0.0379168 0.06227349 -0.02058892 0.1820856
000050 f5 bd 0b be 9b 74 89 bd a4 7b 1b bd 33 35 45 bd
       -0.13646682 -0.06711694 -0.03795971 -0.048146438
000060 4c 6f 0d 3e 82 df 89 3c 04 2d f0 bc 91 c1 90 bd
       0.13811988 0.01683021 -0.02931834 -0.0706817
000070 33 0e 3a 3e 67 ac 6b 3d d9 ba 0a bd cd 72 3f bc
       0.18169479 0.057537463 -0.033869598 -0.0116850855
000080 a3 91 d8 bb d3 75 46 3e f4 6d c4 bd 28 22 32 be
       -0.006609158 0.19380884 -0.095912844 -0.17395842
000090 03 81 ca 3d 3d 5f ea 3d 4f 87 ed bd 97 d1 0e 3e
       0.09887888 0.114439465 -0.11598074 0.1394714
0000a0 1e 36 4c be d1 b2 1b bd f0 f4 98 bc 76 fa 21 3e
       -0.19942519 -0.03801233 -0.018671483 0.158182
0000b0 78 95 07 3e 51 cf 86 bd e6 5b 88 3d 15 4b b6 bd
       0.13240612 -0.06582511 0.06658153 -0.089010395
0000c0 42 17 04 3e 8d eb e0 3d c4 05 b8 3d a5 f0 9b 3d
       0.12899497 0.10982428 0.08985475 0.07614259
0000d0 41 a7 e6 3d b5 16 73 3d e7 6f d4 bc 7f ea 39 3e
       0.1126237 0.059347827 -0.025932265 0.1815586
0000e0 71 7c bd 3c 70 c1 22 3e 81 42 25 bd 66 6d 48 bc
       0.023130627 0.15894103 -0.040346626 -0.012233114
0000f0 82 f2 e7 bd 83 85 e8 bd fa 19 8e 3d 5b 08 0c be
       -0.113255516 -0.1135359 0.069385484 -0.13675062
000100 01 71 ac 3d 5b 53 71 3e 6c 73 9d 3d 7e 24 e4 bc
       0.08419991 0.23566954 0.076880306 -0.027849432
000110 01 b2 09 3e 30 c1 8c 3d 08 f0 5e 3d 3c 90 b9 bd
       0.1344681 0.06872785 0.05442813 -0.09060714
000120 e3 fa d9 3d bc 41 3d 3b da 21 73 3d 53 80 94 3d
       0.10643556 0.0028878292 0.059358455 0.072510384
000130 61 63 2b 3d 07 37 1f 3e d9 ce f7 3d f4 35 40 bc
       0.041842822 0.15548335 0.121 -0.011731613
000140 a0 37 0e 3d f8 84 23 3e fe ab 3a 3e 2f 89 a9 bc
       0.034721017 0.15968692 0.18229672 -0.020695297
000150 54 06 d4 bd 90 55 2d be f3 81 89 3d 9d 4e 15 3e
       -0.103527695 -0.16927171 0.06714239 0.1458077
000160 05 ff f3 bc 15 67 5e 3d 29 11 a0 3d 6f 90 25 3e
       -0.029784689 0.054297525 0.07815773 0.16168378
000170 a8 d3 a0 3d 02 67 f2 bc 72 61 80 3d 03 07 d5 bc
       0.0785287 -0.029590134 0.06268586 -0.02600432
000180 ad 64 ed bc 2c af 1b 3e 60 ba 8d 3d 5d 5d a5 3d
       -0.02897867 0.15203542 0.06920314 0.08074448
000190 b7 3b 21 bd f1 49 fa bd f1 e0 5f 3d 03 35 0e 3d
       -0.03936359 -0.122211345 0.05465788 0.034718525
0001a0 cd 68 e4 bd c7 8c a8 bd 07 c5 13 3e d7 f1 8a bc
       -0.11152802 -0.08229976 0.14430629 -0.016961021
0001b0 9d ef 36 bc 68 c7 1b 3e d0 48 8f bc fa 07 10 3e
       -0.011165527 0.15212786 -0.017490774 0.14065543
0001c0 07 c1 8b bd 94 e7 a6 3d 2c 45 b8 3d cf f6 a4 3d
       -0.068239264 0.08149639 0.089975685 0.080548875
0001d0 b1 23 f7 bd e3 3c 20 3d a6 3e 81 3c ea dc 5b be
       -0.120673545 0.039120566 0.015776943 -0.21470991

layer.9.weight f4 [84, 120]
000000 9a 1d 7d bd 58 ae 11 bd 8c 68 d6 bd 35 13 07 3f
       -0.06179581 -0.035566658 -0.104691595 0.5276368
000010 ff 1d 1d 3d 72 dd b0 bc dc b3 86 bd 24 f3 d7 bd
       0.038358685 -0.021589968 -0.06577274 -0.10544422
000020 58 d2 db 3a bb f1 55 be 16 40 89 be 74 fb 4c 3e
       0.0016771061 -0.20892994 -0.26806706 0.20017797
000030 46 55 fa bc a5 20 93 3e 3f 3b 8d bc 5f 82 07 3f
       -0.03055824 0.28735843 -0.017240165 0.52933306
000040 91 1c 51 bd 7d 43 fe 3d ba cf c4 3e 60 61 80 bd
       -0.051052634 0.12415216 0.38439733 -0.06268573
000050 52 ce d8 3e 37 4e 23 3e da 39 1e 3e 73 54 0a 3e
       0.4234491 0.15947805 0.15451756 0.13508777
000060 a9 19 37 bf f6 73 d2 3e ea ec df bb 58 d2 69 bd
       -0.7152353 0.41104096 -0.0068336623 -0.057085365
000070 04 c6 53 be 30 f3 aa 3d d1 8e 89 be c4 a5 5e 3d
       -0.20681006 0.083471656 -0.26866773 0.054357305
000080 b9 bb 90 be 03 e0 46 be fc 6a ea bc 9a d9 0a 3e
       -0.2826822 -0.19421391 -0.028615467 0.13559571
000090 0d 98 41 be 18 1b 3b bd f3 5b 09 3e 56 e1 f1 bd
       -0.18905659 -0.045680135 0.13413982 -0.118105575
0000a0 6c 64 de 3c 26 3d 3f 3f 07 83 d6 be f8 2a 53 be
       0.027147494 0.7470268 -0.4189684 -0.2062186
0000b0 7b 60 94 be d5 e3 6a 3f bc 43 c8 bd e2 6e ba be
       -0.2897986 0.91753894 -0.09778544 -0.36412722
0000c0 5b 45 13 3e ff 20 02 3b ca 9e 89 3e 7f 39 25 3a
       0.14381926 0.0019856093 0.2687896 0.0006302818
0000d0 c7 6d e7 3e 07 1a 94 bd 1d 2b d5 3e f8 c0 0a be
       0.4520094 -0.07231527 0.41634455 -0.13550174
0000e0 1c 45 b0 3e f6 dc 5f be 55 1e cd 3e d9 fc f1 3d
       0.34427726 -0.21861634 0.40062204 0.11815805
0000f0 19 c5 d9 3e 58 83 11 3f 24 70 56 3e 12 03 87 3e
       0.42533186 0.5684104 0.20941216 0.2636953
000100 84 53 0c bf b9 04 93 be 1c 75 4f bd a2 02 5f be
       -0.54814935 -0.2871454 -0.050648794 -0.21778348
000110 d3 03 0b be 58 1f 0d 3f 84 40 9e 3d 09 f9 2a 3e
       -0.13575678 0.5512595 0.07727149 0.16696562
000120 79 71 c7 3d 51 ad d9 3d 83 1e 71 3e 10 41 d7 3d
       0.0973844 0.106287606 0.23546796 0.105104566
000130 02 1b f5 bd 50 ef a1 bd e0 2d 22 be a0 07 ed be
       -0.11968042 -0.07906973 -0.15837812 -0.4629488
000140 9b 14 a0 be 64 66 0d 3e 52 bb 58 be f3 07 8c 3e
       -0.3126572 0.1380859 -0.21165207 0.27349815
000150 b6 30 ff be 1e 30 ac 3e 50 c8 df bd db 91 a7 be
       -0.4984185 0.3363046 -0.109268785 -0.32728466
000160 a0 73 91 be 7e 76 ef be c2 9c 06 bd 97 63 1f be
       -0.28408527 -0.4677009 -0.03286434 -0.15565334
000170 ec c1 0c 3f d0 9e fa 3e 28 34 7f bd ca 2b 98 be
       0.549834 0.4894929 -0.0623056 -0.29720908
000180 22 42 f5 be 2d 89 ad be be 4b a1 bd 99 d0 24 3b
       -0.47902018 -0.3389372 -0.07875775 0.0025148748
000190 b7 1b 31 3e 8d 6c 25 3e c9 12 79 3e fc 31 d6 3d
       0.17295729 0.1615469 0.24323572 0.104587525
0001a0 8e 1f 09 bf da 63 da 3d b6 68 a6 bd ee 21 94 bf
       -0.53563774 0.106635764 -0.08125441 -1.1572855
0001b0 dc 1d 0d be f0 70 9b 3c 75 7f 8b be e4 0a ea be
       -0.13780922 0.018974751 -0.2724568 -0.45711434
0001c0 55 cf 4b 3e 84 a5 d0 bc f1 f1 24 3f 03 4d 7e 3e
       0.1990331 -0.025469549 0.64431673 0.24834065
0001d0 a9 63 b3 3e e8 f1 b6 3e 13 ee b3 3e 53 27 12 3e
       0.35036972 0.35731435 0.35142574 0.14272813
0001e0 a7 e9 a2 bd 33 6c 6d 3e 22 20 7d be bb a7 2f bf
       -0.07954722 0.23185806 -0.24719289 -0.6861531
0001f0 a3 2b 8b bd 63 b0 df bd 34 32 87 bc c1 4d 3a 3d
       -0.067954324 -0.10922315 -0.01650343 0.04548431
000200 67 0c d6 3e cd 78 a0 3e 6c 7c 9a 3e 6c a5 0a 3e
       0.41806337 0.31342164 0.3017305 0.13539666
000210 11 7a 8a bc 08 d8 61 3e c3 a7 61 3d 87 a7 e1 be
       -0.016903909 0.22055066 0.05509163 -0.44073126
000220 46 b9 bd 3d 88 e1 0b 3b 37 dc 5e bf 94 5b 07 bd
       0.09263854 0.0021344144 -0.8705477 -0.03304632
000230 f3 7e b7 be ed 64 78 be 50 cc 23 bf c3 fc b1 bb
       -0.35839042 -0.2425725 -0.6398363 -0.005431743
000240 37 6c 07 3f 28 e5 c5 3d be 7e 5a be 27 43 3b be
       0.528995 0.09662849 -0.21337411 -0.18287335
000250 aa 9b 27 3d c1 c2 09 be e4 fe 34 3e 58 97 76 be
       0.040919937 -0.13453199 0.17675358 -0.2408117
000260 e8 23 74 3e 12 15 e1 3d a8 ae bc bd 78 ee 91 be
       0.23841822 0.10990347 -0.092130005 -0.2850225
000270 1d 46 02 3e 6e 43 c6 bc 84 b5 63 be a9 25 58 3d
       0.12722059 -0.024202075 -0.22237211 0.05277029
000280 9d 20 aa be 4e 11 3a bf 48 6a 53 3f 68 c0 15 be
       -0.33228007 -0.72682655 0.8258405 -0.14624178
000290 1e c6 8a 3e c0 64 72 bf e4 5a c0 bd 27 1b 56 3f
       0.27104276 -0.9468498 -0.09392336 0.8363518
0002a0 36 e1 34 be 26 dc 97 3d 97 00 61 be ba 0a d7 bd
       -0.17664036 0.07415037 -0.21972881 -0.10500093
0002b0 b6 23 e6 be 3f 27 20 bd 97 b5 7a be f6 d4 bc bd
       -0.4494912 -0.039099928 -0.24483334 -0.092203066
0002c0 0b 0c 05 be 64 ee 6d 3e d3 84 e8 bd ca 6a c3 bd
       -0.12992875 0.2323547 -0.11353459 -0.09541853
0002d0 dc 14 de be 6c 3f f3 be d3 26 b5 be da ca 58 be
       -0.4337529 -0.47509325 -0.35381183 -0.21171132
0002e0 60 b1 85 be 5c 21 d8 3e 5b be 45 3e a2 24 c3 3e
       -0.2611189 0.4221295 0.19310896 0.38113886
0002f0 63 4a 54 3e 0f 6a ba be 53 eb b1 3e ee 36 85 bd
       0.20731501 -0.3640904 0.3474985 -0.06504618
000300 30 f8 d5 bd c2 8d 6c 3c f4 73 71 be 35 b3 0d bf
       -0.10447729 0.014438095 -0.23579389 -0.55351573
000310 eb 47 d4 ba 15 ac e2 bc cb 65 1a bd 7e 76 0d be
       -0.001619575 -0.027669946 -0.037694734 -0.13814732
000320 74 3a 95 3e 8f 50 2c bd 16 9b 1b bd 8f 30 48 bd
       0.2914616 -0.042069014 -0.0379897 -0.048874434
000330 9b 13 d9 bd cd 6f 94 be 3b 5d 03 3f b0 99 a5 3e
       -0.105994426 -0.28991547 0.51314133 0.32343817
000340 88 63 b0 3e 07 2b e5 3e 73 ef af bb 79 d3 04 3e
       0.34450936 0.4475939 -0.0053691207 0.12971295
000350 fe f6 21 bf 54 e0 d0 bd 3e 44 2a be c9 dd 31 3f
       -0.63267505 -0.10199037 -0.16627595 0.6947904
000360 64 61 c3 3e ce 86 9f 3d 30 26 be 3d d8 c4 b4 3e
       0.3816024 0.07789384 0.092846274 0.3530643
000370 26 f8 6f 3e d2 aa ec bd 27 15 e3 be 01 53 d1 be
       0.23434505 -0.11556019 -0.44352075 -0.4088364
000380 b9 3c 29 be 3b 3a 15 3c 51 6e fa 3e 85 3d e0 3e
       -0.1652707 0.0091081215 0.4891229 0.43796936
000390 f1 76 0f 3f 63 5a db 3d 1c 29 95 3e 29 c0 f3 3e
       0.56040865 0.10710599 0.29132926 0.47607544
0003a0 ee 9d 80 be 61 b0 18 bd 56 3d ec be ee b2 13 bc
       -0.2512049 -0.037277583 -0.46140546 -0.009014828
0003b0 b2 c9 28 bf 37 0f cc 3d 68 10 12 bf d7 2a ae be
       -0.6593276 0.099638395 -0.57056284 -0.3401706
0003c0 80 83 3c 3e 0e a7 88 be 67 7e a3 3e 83 fb 87 be
       0.18409538 -0.26689953 0.31932375 -0.26559076
0003d0 3e fe c8 bd 7d f7 10 3d 51 58 a0 be 94 22 a6 3e
       -0.09814118 0.035392273 -0.3131738 0.32448256
0003e0 ad 43 9e bd 45 23 24 be a2 04 1d be 26 1a 21 bf
       -0.07727752 -0.1602908 -0.15333799 -0.62930524
0003f0 c5 9e 3b 3e 3f d6 d4 be 3b de 1c 3e 47 7b eb be
       0.18322285 -0.41569707 0.15319149 -0.4599249

layer.9.bias f4 [84]
000000 39 82 d4 bc 93 8e 4e 3d 07 99 8a 3d 61 b2 58 3d
       -0.025941001 0.050428938 0.06767469 0.05290449
000010 e2 6d 6c bd b4 32 81 bc 17 c7 86 bc 8c 06 71 bd
       -0.05772198 -0.015771247 -0.016452355 -0.058844134
000020 d2 1b 21 3d c4 68 86 3d 2f d0 43 3d d7 41 34 bd
       0.039333172 0.06562951 0.04780596 -0.044008102
000030 1d 42 37 3d d5 a3 e5 bd b4 58 12 3d 38 20 85 3d
       0.044740785 -0.11212889 0.035729125 0.06500286
000040 b5 c1 d5 bc 67 df a9 3d f1 55 00 3d 17 50 9a bd
       -0.026093343 0.08294564 0.03133196 -0.07534807
000050 c8 6d 84 bd ce d7 0f be e6 1d e7 bd d5 84 05 bd
       -0.064662516 -0.14047167 -0.112849995 -0.03259738
000060 0e 22 9d bd 37 60 fa 3c aa 79 35 3d 03 d2 db 3d
       -0.07672511 0.030563457 0.04430548 0.10733416
000070 6e f1 ab 3c f8 51 43 3d a9 55 0e 3d cd 6e 8b 3d
       0.020989146 0.047685593 0.03474966 0.06808243
000080 0b 3c 0d 3e 56 e1 9a bc 6b 49 a5 3d f1 b1 56 3d
       0.13792436 -0.018906277 0.08070644 0.052415792
000090 04 c7 e7 3d ca 19 a1 3d 84 3e 2e 3c 21 71 03 bd
       0.11317256 0.07866247 0.010635022 -0.03209031
0000a0 ba 13 f9 3c 8c 51 ca bd 2b 2c 0e be a4 89 88 bd
       0.030404914 -0.09878835 -0.13884036 -0.06666878
0000b0 33 17 bf 3c 1b 2a b6 bd a5 79 c5 bc 65 e3 22 3d
       0.023326492 -0.0889475 -0.024105856 0.03976764
0000c0 03 28 04 bd e0 a0 97 bc 2c 9f 3b 3e 27 0c 1b 3c
       -0.03226472 -0.018509328 0.18322438 0.009463347
0000d0 a1 64 f2 3c 77 6d 2f bb 81 1b 1d 3d 17 55 1d bd
       0.029589 -0.0026768127 0.038356308 -0.038411226
0000e0 ed 6f b8 bd 5b 63 83 3d 28 50 da bc e3 85 a1 bd
       -0.09005723 0.06415435 -0.02664955 -0.07886865
0000f0 89 2c 2e bd eb 91 2b bd 21 2c ba 3d 09 7c 8f bc
       -0.04252294 -0.041887205 0.09090448 -0.0175152
000100 75 21 9a 3d 54 b6 3a 3d f7 c2 d3 3a a1 b7 af 3d
       0.07525913 0.045584038 0.0016156127 0.08579946
000110 7e e2 80 bd 05 e6 71 bb 75 3d 47 3d ae 30 0f 3d
       -0.062932 -0.0036910784 0.048642594 0.034958534
000120 76 d7 8f bd fc 12 90 bb da de ad 3d 72 df 28 bd
       -0.07023518 -0.0043967944 0.08489771 -0.04122872
000130 5e 99 dd bd 35 89 b3 bc 29 14 95 bc cd b7 d5 3d
       -0.10820268 -0.021916011 -0.01819809 0.10435448
000140 77 d7 01 be a2 c6 25 3e 5b 3f 12 be 88 12 b6 bd
       -0.1267985 0.16189054 -0.1428198 -0.08890253

layer.11.weight f4 [10, 84]
000000 24 c0 80 3e d6 87 36 3c 6e 42 da be 1e 8a b5 be
       0.25146592 0.011140784 -0.42628807 -0.35456938
000010 3b 2f d2 3d 63 7d 77 3e 2d 7b d4 3e f2 c2 92 bc
       0.10262915 0.24168925 0.41500226 -0.017915223
000020 3a a1 b9 3e 4f 05 f7 be a3 49 08 3e fe 8c 02 bf
       0.3625582 -0.48246238 0.1330934 -0.50996387
000030 c1 b1 cc 3c 54 f4 ac 3b ce c7 9f 3d 78 ae a3 be
       0.024987103 0.0052781496 0.078017816 -0.31969047
000040 fe 04 8e 3e e3 6b d7 3d 97 b3 b0 be 09 ba ee 3d
       0.27738184 0.10518625 -0.34512016 0.11656577
000050 00 01 02 3f ae 5d e8 3d 9e a4 aa 3e eb c6 4e 3e
       0.50782776 0.11345993 0.33328718 0.20193069
000060 d5 eb 83 be 05 34 88 3d 2c 52 b2 3d f9 41 87 bf
       -0.25765863 0.06650547 0.08707079 -1.0567008
000070 79 8b 83 3e 80 8d 43 bf f6 b9 6e 3e 06 19 ff be
       0.25692347 -0.76387787 0.23313126 -0.4982378
000080 a3 2f f8 be e5 12 0d bd d0 a8 c1 bd ed 12 35 bf
       -0.48473844 -0.034441847 -0.094560266 -0.70732003
000090 b3 eb 61 bf 90 f5 82 3e bc 4c 2b be af 1d dc 3c
       -0.88250273 0.25577974 -0.1672849 0.026869623
0000a0 24 0c a5 be 1a fe d7 3d 2d 23 00 3d cb 30 10 be
       -0.32235825 0.10546513 0.031283546 -0.14081113
0000b0 d8 ee a6 3e 5a fb 18 3f 61 9c de be 25 b2 09 bf
       0.32604098 0.5975853 -0.43478683 -0.5378745
0000c0 91 5b d4 be c4 12 2b 3e e0 25 1e bf 14 f8 90 bf
       -0.4147611 0.16706377 -0.6177654 -1.1325707
0000d0 85 f0 5d bd 8c f6 8d 3d f4 e4 87 3e ee bb a7 3e
       -0.054184455 0.06931791 0.26541865 0.32760566
0000e0 d0 a4 9b be c0 c9 fa 3e 2c 70 63 3f 63 48 0d 3e
       -0.3039918 0.48982048 0.88843036 0.13797145
0000f0 d5 66 0a 3e 84 a8 95 3d ae be ba be 4e 0c aa be
       0.1351579 0.073075324 -0.36473602 -0.33212513
000100 12 57 fe be 2b 44 45 be e9 65 d6 3e 63 32 c4 3e
       -0.49675804 -0.19264285 0.41874626 0.38319692
000110 05 78 54 bf 8a 8a 19 3e 8d 21 1d bf ba 99 da 3c
       -0.82995635 0.14994255 -0.6137932 0.02668463
000120 7f dd 35 be 44 2e 31 bf 56 d2 24 bf 9f 21 fb be
       -0.17760275 -0.6921122 -0.6438345 -0.49049088
000130 80 03 6f 3e 4f 63 e1 bd 73 95 e8 3e 42 ff fb 3e
       0.23341179 -0.1100527 0.4542652 0.49218184
000140 42 5d ae be ea ea 13 bf 03 1a 83 bd c8 da 5e 3e
       -0.34055525 -0.57780325 -0.06401446 0.21763146
000150 01 8a 4d 3e d5 08 14 bf ab a6 c9 bc d0 17 b6 3e
       0.20072176 -0.57825977 -0.024615606 0.35565042
000160 de ce 33 3e f3 a0 ea 3e 12 21 ba be 86 b0 f0 3c
       0.17559382 0.4582592 -0.36353356 0.029381048
000170 89 a8 a1 be 2b a4 cd bc ef 26 78 3d f2 e7 b2 bd
       -0.31573895 -0.025102695 0.060584005 -0.08735646
000180 d3 ef 0b bf 66 06 4a 3d 50 37 77 3d 2d a0 03 bf
       -0.5466282 0.04932251 0.060355484 -0.51416284
000190 f3 2f 5e bf b2 d4 2b 3e 03 f8 8c bf 0a b3 cb 3d
       -0.86791915 0.16780356 -1.1013187 0.09946258
0001a0 c2 3b a3 3e 67 df 02 bf fc cb 48 3e ae ec 3d bf
       0.3188153 -0.51122135 0.19609064 -0.7418927
0001b0 a5 b9 8a 3f 4d 08 ae 3d b6 bd 71 3e c8 86 ba 3e
       1.0837904 0.08497677 0.23607525 0.36430955
0001c0 8f 9a 66 bf 22 22 36 3f 76 5a 2a bf 9f ab ee 3d
       -0.9007959 0.7114583 -0.6654428 0.11653828
0001d0 80 06 74 3e a6 29 23 bf 13 e7 18 bf cc 9b 10 3f
       0.23830605 -0.63735425 -0.5972759 0.5648773
0001e0 07 b6 23 3f 8f 3a 08 3f 0a d3 4a bf 5f 2c 2d bf
       0.63949627 0.53214353 -0.7922827 -0.6764583
0001f0 f6 71 a3 be 25 25 09 be 79 76 2a bf 4e eb e0 be
       -0.31922883 -0.13393076 -0.66587025 -0.43929523
000200 52 c3 fa 3d 34 fe 00 bf 98 c4 8a be 62 ab 59 3d
       0.12244286 -0.50387883 -0.27103114 0.05314196
000210 8d a7 32 be 1e 21 4c 3e 1c a7 8e bc e5 37 af bf
       -0.17446728 0.19934508 -0.017413668 -1.3688933
000220 66 33 20 bf 1e e6 27 3d b4 65 db 3d da ca 67 be
       -0.6257843 0.04099094 0.10712758 -0.22635975
000230 2a c1 b8 be 4b ed 0e bf 0f 6e 4e bd a9 39 60 3d
       -0.36084872 -0.5583083 -0.05039793 0.05474249
000240 7f 17 17 3d ca 06 11 3e fb c0 ae be 79 5c 6e 3d
       0.036887642 0.14162746 -0.34131607 0.058193658
000250 47 27 80 3e a0 f5 0d bf 72 4c 5e bf d3 25 5b 3e
       0.25029966 -0.5545292 -0.86835396 0.21401148
000260 a4 31 83 3f e2 5c 05 bf c0 51 15 bf 18 2a 68 3e
       1.0249524 -0.5209485 -0.58327866 0.22672307
000270 03 b3 23 be e8 28 95 be 2f 23 2a 3f 73 24 c3 bc
       -0.15986256 -0.29132771 0.66459936 -0.023821091
000280 40 b1 61 be 0e 7c b5 be 6f cc dd 3e 97 ca 84 be
       -0.22040272 -0.3544621 0.43320033 -0.25935814
000290 99 5a 39 bf cd f3 8c 3e 66 df ef 3d 72 f0 3b 3e
       -0.72403866 0.27529755 0.11712532 0.18353441
0002a0 71 78 fc 3d fb 80 da 3d 05 81 47 3e 74 bd 44 3e
       0.1232766 0.10669132 0.19482811 0.19212896
0002b0 6d e2 6d 3e e7 50 21 bf 83 8b 02 3e 48 35 36 3b
       0.23230906 -0.6301407 0.12748532 0.0027802754
0002c0 5c 0e 40 be 8a 4b 19 bf 69 6f 32 3d c4 2c 5c 3e
       -0.18755478 -0.5988089 0.04356328 0.21501452
0002d0 05 2d 42 3e 65 a4 55 3e 5a ed 3e 3e 51 d0 b9 3e
       0.18962486 0.20863493 0.1864523 0.36291745
0002e0 bd c3 bb 3d e0 b5 e6 3e 6c c6 0c be da ec 0c 3e
       0.091681935 0.45060635 -0.13747567 0.13762227
0002f0 0c 73 3f bf 95 77 05 3e 43 07 ab 3e c6 42 19 3e
       -0.7478492 0.13033898 0.33403978 0.14966878
000300 52 53 b2 be 66 d6 0e 3d 37 ac 79 3e b1 8e 2e be
       -0.34829193 0.034872435 0.24382101 -0.1704662
000310 28 f8 51 3e e8 99 3a be f9 e7 70 bf b5 4c ff be
       0.2050482 -0.18222773 -0.9410396 -0.4986321
000320 7c 76 52 3e dc 69 71 bf f1 53 8d bf fa ef dc bd
       0.2055301 -0.94302154 -1.1041242 -0.107879594
000330 71 77 32 be f9 f1 8c 3d 44 9b 9d 3d 73 30 a6 3e
       -0.17428376 0.0688209 0.0769563 0.3245884
000340 6e 68 88 be 19 d0 85 3e 25 db 03 be c3 72 66 3e
       -0.26642174 0.26135328 -0.12876566 0.22504716
000350 d7 a9 8d bf dd 03 b7 be 08 24 ad 3e 86 5d 13 3f
       -1.1067456 -0.35745135 0.33816552 0.5756458
000360 83 f5 07 3e 81 a9 66 3e 9f b3 1c 3e 38 a6 8f bf
       0.13277249 0.22525598 0.15302895 -1.1222601
000370 26 18 67 bf cf 36 13 bf c7 fa 20 bf 51 07 90 3e
       -0.9027122 -0.57505506 -0.62882656 0.28130582
000380 17 4c 0a be fb 65 82 3d 59 42 c6 be 4e 5f 15 3e
       -0.13505588 0.063671075 -0.38722494 0.14587137
000390 0e 58 c5 3d 63 f0 68 3c 9a e6 38 bf cd f5 b4 3e
       0.09635936 0.014217469 -0.7222687 0.3534378
0003a0 d8 5f 81 be 07 f2 40 be 36 d3 3e ba 5f 84 88 bf
       -0.25268435 -0.18842326 -0.00072793977 -1.0665396
0003b0 40 a3 50 bf fa 52 9b be dc 4e 68 3e 8a c5 9b 3d
       -0.814991 -0.30336744 0.22686332 0.07606037
0003c0 6b 6e 9a be 1e 49 26 be d2 73 04 bd 67 b6 0d bf
       -0.30162367 -0.1623883 -0.032337017 -0.5535645
0003d0 a8 d0 43 3e f7 fe 65 bf 65 f5 c4 be 93 a7 43 be
       0.19122565 -0.8984217 -0.3846847 -0.19106893
0003e0 c9 1d 83 3e ae 97 c8 3e 17 0e f0 3e a1 bc 43 3e
       0.25608662 0.39178222 0.4688575 0.19114925
0003f0 f0 87 ac 3e 9d 9c d6 be d5 dc 04 be e3 2e 8c 3e
       0.33697462 -0.4191636 -0.12974866 0.27379522

layer.11.bias f4 [10]
000000 c3 4c 9f 3c fc ee 12 bc 9a ec d8 3d 55 6e 54 bd
       0.019445783 -0.008968111 0.10592003 -0.051863033
000010 0f f1 7b 3d 7e b2 65 bb 24 3b 65 3c 38 ba 9a 3d
       0.06150919 -0.0035049017 0.013991151 0.0755505
000020 9c 6e c8 bd ff 88 68 3d
       -0.09786722 0.056771275
